…
2025-08-25 01:37:40,639 - root - INFO -    Fusion strategy: use
2025-08-25 01:37:40,639 - root - INFO -    Theoretical compliance: MPGNN ✓
2025-08-25 01:37:40,639 - root - INFO - Using enhanced feature dimension for link predictor: 300
2025-08-25 01:37:40,641 - root - INFO - Model approach: 🧠 INTEGRATED MPGNN (theoretical)
2025-08-25 01:37:40,642 - root - INFO - model -> Sequential(
  (0): IntegratedDyGMamba(
    (enhanced_feature_manager): EnhancedNodeFeatureManager(
      (spatial_generator): TrainableSpatialGenerator(
        (spatial_encoder): Sequential(
          (spatial_layer_0): Sequential(
            (0): Linear(in_features=172, out_features=64, bias=True)
            (1): ReLU()
            (2): Dropout(p=0.1, inplace=False)
            (3): LayerNorm((64,), eps=1e-05, elementwise_affine=True)
          )
          (spatial_layer_1): Sequential(
            (0): Linear(in_features=64, out_features=64, bias=True)
            (1): ReLU()
            (2): Dropout(p=0.1, inplace=False)
            (3): LayerNorm((64,), eps=1e-05, elementwise_affine=True)
          )
        )
        (spatial_output): Linear(in_features=64, out_features=64, bias=True)
        (position_encoder): Embedding(16, 64)
        (time_spatial_encoder): Linear(in_features=1, out_features=64, bias=True)
      )
      (temporal_generator): TrainableTemporalGenerator(
        (time_encoder): TimeEncoder(
          (w): Linear(in_features=1, out_features=100, bias=True)
        )
        (temporal_encoder): Sequential(
          (temporal_layer_0): Sequential(
            (0): Linear(in_features=272, out_features=64, bias=True)
            (1): GELU(approximate='none')
            (2): Dropout(p=0.5, inplace=False)
            (3): LayerNorm((64,), eps=1e-05, elementwise_affine=True)
          )
          (temporal_layer_1): Sequential(
            (0): Linear(in_features=64, out_features=64, bias=True)
            (1): GELU(approximate='none')
            (2): Dropout(p=0.5, inplace=False)
            (3): LayerNorm((64,), eps=1e-05, elementwise_affine=True)
          )
        )
        (temporal_output): Linear(in_features=64, out_features=64, bias=True)
      )
      (fusion_module): TrainableUSEFusion(
        (casm_net): Sequential(
          (casm_layer_0): Sequential(
            (0): Linear(in_features=128, out_features=128, bias=True)
            (1): ReLU()
            (2): Dropout(p=0.1, inplace=False)
            (3): LayerNorm((128,), eps=1e-05, elementwise_affine=True)
          )
          (casm_layer_1): Sequential(
            (0): Linear(in_features=128, out_features=128, bias=True)
            (1): ReLU()
            (2): Dropout(p=0.1, inplace=False)
            (3): LayerNorm((128,), eps=1e-05, elementwise_affine=True)
          )
          (casm_layer_2): Sequential(
            (0): Linear(in_features=128, out_features=128, bias=True)
            (1): ReLU()
            (2): Dropout(p=0.1, inplace=False)
            (3): LayerNorm((128,), eps=1e-05, elementwise_affine=True)
          )
        )
        (casm_output): Linear(in_features=128, out_features=16, bias=True)
        (smpn): Sequential(
          (smpn_layer_0): Sequential(
            (0): Linear(in_features=128, out_features=128, bias=True)
            (1): GELU(approximate='none')
            (2): Dropout(p=0.1, inplace=False)
            (3): LayerNorm((128,), eps=1e-05, elementwise_affine=True)
          )
          (smpn_layer_1): Sequential(
            (0): Linear(in_features=128, out_features=128, bias=True)
            (1): GELU(approximate='none')
            (2): Dropout(p=0.1, inplace=False)
            (3): LayerNorm((128,), eps=1e-05, elementwise_affine=True)
          )
          (smpn_layer_2): Sequential(
            (0): Linear(in_features=128, out_features=128, bias=True)
            (1): GELU(approximate='none')
            (2): Dropout(p=0.1, inplace=False)
            (3): LayerNorm((128,), eps=1e-05, elementwise_affine=True)
          )
        )
        (smpn_output): Linear(in_features=128, out_features=16, bias=True)
        (final_projection): Linear(in_features=16, out_features=128, bias=True)
      )
    )
  )
  (1): MergeLayerTD(
    (fc1): Linear(in_features=900, out_features=300, bias=True)
    (fc2): Linear(in_features=300, out_features=1, bias=True)
    (act): ReLU()
  )
)
2025-08-25 01:37:40,643 - root - INFO - model name: DyGMamba, #parameters: 1699524 B, 1659.69140625 KB, 1.6207923889160156 MB.
2025-08-25 01:40:30,779 - root - INFO - Epoch: 1, learning rate: 0.0001, train loss: 0.6951
2025-08-25 01:40:30,780 - root - INFO - train average_precision, 0.5929
2025-08-25 01:40:30,780 - root - INFO - train roc_auc, 0.4920
…
